…
Downloading https://ultralytics.com/assets/coco128.zip to '/Users/mars/Desktop/programming/projects/personal/object-detection-test/datasets/coco128.zip'...
100%|███████████████████████████████████████████████████████████████████████████████████████████████████████████████| 6.66M/6.66M [00:01<00:00, 3.53MB/s]
Unzipping /Users/mars/Desktop/programming/projects/personal/object-detection-test/datasets/coco128.zip to /Users/mars/Desktop/programming/projects/person
Dataset download success ✅ (4.2s), saved to /Users/mars/Desktop/programming/projects/personal/object-detection-test/datasets


                   from  n    params  module                                       arguments                     
  0                  -1  1      1856  ultralytics.nn.modules.conv.Conv             [3, 64, 3, 2]                 
  1                  -1  1     73984  ultralytics.nn.modules.conv.Conv             [64, 128, 3, 2]               
  2                  -1  3    279808  ultralytics.nn.modules.block.C2f             [128, 128, 3, True]           
  3                  -1  1    295424  ultralytics.nn.modules.conv.Conv             [128, 256, 3, 2]              
  4                  -1  6   2101248  ultralytics.nn.modules.block.C2f             [256, 256, 6, True]           
  5                  -1  1   1180672  ultralytics.nn.modules.conv.Conv             [256, 512, 3, 2]              
  6                  -1  6   8396800  ultralytics.nn.modules.block.C2f             [512, 512, 6, True]           
  7                  -1  1   2360320  ultralytics.nn.modules.conv.Conv             [512, 512, 3, 2]              
  8                  -1  3   4461568  ultralytics.nn.modules.block.C2f             [512, 512, 3, True]           
  9                  -1  1    656896  ultralytics.nn.modules.block.SPPF            [512, 512, 5]                 
 10                  -1  1         0  torch.nn.modules.upsampling.Upsample         [None, 2, 'nearest']          
 11             [-1, 6]  1         0  ultralytics.nn.modules.conv.Concat           [1]                           
 12                  -1  3   4723712  ultralytics.nn.modules.block.C2f             [1024, 512, 3]                
 13                  -1  1         0  torch.nn.modules.upsampling.Upsample         [None, 2, 'nearest']          
 14             [-1, 4]  1         0  ultralytics.nn.modules.conv.Concat           [1]                           
 15                  -1  3   1247744  ultralytics.nn.modules.block.C2f             [768, 256, 3]                 
 16                  -1  1    590336  ultralytics.nn.modules.conv.Conv             [256, 256, 3, 2]              
 17            [-1, 12]  1         0  ultralytics.nn.modules.conv.Concat           [1]                           
 18                  -1  3   4592640  ultralytics.nn.modules.block.C2f             [768, 512, 3]                 
 19                  -1  1   2360320  ultralytics.nn.modules.conv.Conv             [512, 512, 3, 2]              
 20             [-1, 9]  1         0  ultralytics.nn.modules.conv.Concat           [1]                           
 21                  -1  3   4723712  ultralytics.nn.modules.block.C2f             [1024, 512, 3]                
 22        [15, 18, 21]  1   5644480  ultralytics.nn.modules.head.Detect           [80, [256, 512, 512]]         
Model summary: 209 layers, 43,691,520 parameters, 43,691,504 gradients, 165.7 GFLOPs

Transferred 595/595 items from pretrained weights
Freezing layer 'model.22.dfl.conv.weight'
train: Fast image access ✅ (ping: 0.0±0.0 ms, read: 1356.6±760.5 MB/s, size: 50.9 KB)
train: Scanning /Users/mars/Desktop/programming/projects/personal/object-detection-test/datasets/coco128/labels/train2017... 126 images, 2 backgrounds, 0
…
